…
│    │    └─Block: 3-8                             [1, 257, 384]             (1,774,464)
│    │    └─Block: 3-9                             [1, 257, 384]             (1,774,464)
│    │    └─Block: 3-10                            [1, 257, 384]             (1,774,464)
│    │    └─Block: 3-11                            [1, 257, 384]             (1,774,464)
│    │    └─Block: 3-12                            [1, 257, 384]             (1,774,464)
│    │    └─Block: 3-13                            [1, 257, 384]             (1,774,464)
│    └─LayerNorm: 2-4                              [1, 257, 384]             (768)
│    └─Linear: 2-5                                 [1, 19]                   7,315
├─Sequential: 1-2                                  --                        --
│    └─ConvTranspose2d: 2-6                        [1, 312, 32, 32]          479,544
│    └─Sequential: 2-7                             [1, 312, 32, 32]          --
│    │    └─Deconv2DBlock: 3-14                    [1, 312, 32, 32]          1,356,576
│    └─Sequential: 2-8                             [1, 256, 64, 64]          --
│    │    └─Conv2DBlock: 3-15                      [1, 312, 32, 32]          1,753,128
│    │    └─Conv2DBlock: 3-16                      [1, 312, 32, 32]          877,032
│    │    └─Conv2DBlock: 3-17                      [1, 312, 32, 32]          877,032
│    │    └─ConvTranspose2d: 3-18                  [1, 256, 64, 64]          319,744
│    └─Sequential: 2-9                             [1, 256, 64, 64]          --
│    │    └─Deconv2DBlock: 3-19                    [1, 256, 32, 32]          984,064
│    │    └─Deconv2DBlock: 3-20                    [1, 256, 64, 64]          852,992
│    └─Sequential: 2-10                            [1, 128, 128, 128]        --
│    │    └─Conv2DBlock: 3-21                      [1, 256, 64, 64]          1,180,416
│    │    └─Conv2DBlock: 3-22                      [1, 256, 64, 64]          590,592
│    │    └─ConvTranspose2d: 3-23                  [1, 128, 128, 128]        131,200
│    └─Sequential: 2-11                            [1, 128, 128, 128]        --
│    │    └─Deconv2DBlock: 3-24                    [1, 256, 32, 32]          984,064
│    │    └─Deconv2DBlock: 3-25                    [1, 128, 64, 64]          279,040
│    │    └─Deconv2DBlock: 3-26                    [1, 128, 128, 128]        213,504
│    └─Sequential: 2-12                            [1, 64, 256, 256]         --
│    │    └─Conv2DBlock: 3-27                      [1, 128, 128, 128]        295,296
│    │    └─Conv2DBlock: 3-28                      [1, 128, 128, 128]        147,840
│    │    └─ConvTranspose2d: 3-29                  [1, 64, 256, 256]         32,832
│    └─Sequential: 2-13                            [1, 64, 256, 256]         --
│    │    └─Conv2DBlock: 3-30                      [1, 32, 256, 256]         960
│    │    └─Conv2DBlock: 3-31                      [1, 64, 256, 256]         18,624
│    └─Sequential: 2-14                            [1, 64, 256, 256]         --
│    │    └─Conv2DBlock: 3-32                      [1, 64, 256, 256]         73,920
│    │    └─Conv2DBlock: 3-33                      [1, 64, 256, 256]         37,056
├─Conv2d: 1-3                                      [1, 2, 256, 256]          130
├─Conv2d: 1-4                                      [1, 2, 256, 256]          130
├─Conv2d: 1-5                                      [1, 6, 256, 256]          390
====================================================================================================
Total params: 33,159,085
Trainable params: 11,493,421
Non-trainable params: 21,665,664
Total mult-adds (G): 44.39
====================================================================================================
Input size (MB): 0.79
Forward/backward pass size (MB): 631.52
Params size (MB): 132.33
…
