…
        (4): GroupNorm(32, 256, eps=1e-05, affine=True)
        (5): ELU(alpha=1.0, inplace=True)
      )
    )
  )
  (up4_seg): Upsample(scale_factor=2.0, mode=bilinear)
  (out_seg): outconv(
    (conv): Conv2d(256, 6, kernel_size=(1, 1), stride=(1, 1))
  )
  (final_activation_ray): ReLU()
)
2023-09-19 00:51:02,940 [INFO] -
===============================================================================================
Layer (type:depth-idx)                        Output Shape              Param #
===============================================================================================
StarDistRN50                                  [1, 6, 256, 256]          --
├─ResNet: 1-1                                 [1, 256, 128, 128]        --
│    └─Conv2d: 2-1                            [1, 64, 128, 128]         9,408
│    └─BatchNorm2d: 2-2                       [1, 64, 128, 128]         128
│    └─ReLU: 2-3                              [1, 64, 128, 128]         --
│    └─Sequential: 2-4                        [1, 256, 128, 128]        --
│    │    └─Bottleneck: 3-1                   [1, 256, 128, 128]        75,008
│    │    └─Bottleneck: 3-2                   [1, 256, 128, 128]        70,400
│    │    └─Bottleneck: 3-3                   [1, 256, 128, 128]        70,400
│    └─Sequential: 2-5                        [1, 512, 64, 64]          --
│    │    └─Bottleneck: 3-4                   [1, 512, 64, 64]          379,392
│    │    └─Bottleneck: 3-5                   [1, 512, 64, 64]          280,064
│    │    └─Bottleneck: 3-6                   [1, 512, 64, 64]          280,064
│    │    └─Bottleneck: 3-7                   [1, 512, 64, 64]          280,064
│    └─Sequential: 2-6                        [1, 1024, 32, 32]         --
│    │    └─Bottleneck: 3-8                   [1, 1024, 32, 32]         1,512,448
│    │    └─Bottleneck: 3-9                   [1, 1024, 32, 32]         1,117,184
│    │    └─Bottleneck: 3-10                  [1, 1024, 32, 32]         1,117,184
│    │    └─Bottleneck: 3-11                  [1, 1024, 32, 32]         1,117,184
│    │    └─Bottleneck: 3-12                  [1, 1024, 32, 32]         1,117,184
│    │    └─Bottleneck: 3-13                  [1, 1024, 32, 32]         1,117,184
│    └─Sequential: 2-7                        [1, 2048, 16, 16]         --
│    │    └─Bottleneck: 3-14                  [1, 2048, 16, 16]         6,039,552
│    │    └─Bottleneck: 3-15                  [1, 2048, 16, 16]         4,462,592
│    │    └─Bottleneck: 3-16                  [1, 2048, 16, 16]         4,462,592
├─up: 1-2                                     [1, 1024, 32, 32]         --
│    └─Upsample: 2-8                          [1, 2048, 32, 32]         --
│    └─double_conv: 2-9                       [1, 1024, 32, 32]         --
│    │    └─Sequential: 3-17                  [1, 1024, 32, 32]         37,754,880
├─up: 1-3                                     [1, 512, 64, 64]          --
│    └─Upsample: 2-10                         [1, 1024, 64, 64]         --
│    └─double_conv: 2-11                      [1, 512, 64, 64]          --
│    │    └─Sequential: 3-18                  [1, 512, 64, 64]          9,440,256
├─up: 1-4                                     [1, 256, 128, 128]        --
│    └─Upsample: 2-12                         [1, 512, 128, 128]        --
│    └─double_conv: 2-13                      [1, 256, 128, 128]        --
│    │    └─Sequential: 3-19                  [1, 256, 128, 128]        2,360,832
├─Upsample: 1-5                               [1, 256, 256, 256]        --
├─Conv2d: 1-6                                 [1, 256, 256, 256]        590,080
├─outconv: 1-7                                [1, 1, 256, 256]          --
│    └─Conv2d: 2-14                           [1, 1, 256, 256]          257
├─outconv: 1-8                                [1, 32, 256, 256]         --
│    └─Conv2d: 2-15                           [1, 32, 256, 256]         8,224
├─ReLU: 1-9                                   [1, 32, 256, 256]         --
├─up: 1-10                                    [1, 1024, 32, 32]         --
│    └─Upsample: 2-16                         [1, 2048, 32, 32]         --
│    └─double_conv: 2-17                      [1, 1024, 32, 32]         --
│    │    └─Sequential: 3-20                  [1, 1024, 32, 32]         37,754,880
├─up: 1-11                                    [1, 512, 64, 64]          --
│    └─Upsample: 2-18                         [1, 1024, 64, 64]         --
│    └─double_conv: 2-19                      [1, 512, 64, 64]          --
│    │    └─Sequential: 3-21                  [1, 512, 64, 64]          9,440,256
├─up: 1-12                                    [1, 256, 128, 128]        --
│    └─Upsample: 2-20                         [1, 512, 128, 128]        --
│    └─double_conv: 2-21                      [1, 256, 128, 128]        --
│    │    └─Sequential: 3-22                  [1, 256, 128, 128]        2,360,832
├─Upsample: 1-13                              [1, 256, 256, 256]        --
├─outconv: 1-14                               [1, 6, 256, 256]          --
│    └─Conv2d: 2-22                           [1, 6, 256, 256]          1,542
===============================================================================================
Total params: 123,220,071
Trainable params: 123,220,071
Non-trainable params: 0
Total mult-adds (G): 292.18
===============================================================================================
Input size (MB): 0.79
Forward/backward pass size (MB): 1503.13
Params size (MB): 492.88
Estimated Total Size (MB): 1996.80
…
