…
│    │    └─Block: 3-7                        [1, 16, 16, 768]          (7,104,128)
│    │    └─Block: 3-8                        [1, 16, 16, 768]          (7,091,328)
│    │    └─Block: 3-9                        [1, 16, 16, 768]          (7,091,328)
│    │    └─Block: 3-10                       [1, 16, 16, 768]          (7,104,128)
│    │    └─Block: 3-11                       [1, 16, 16, 768]          (7,091,328)
│    │    └─Block: 3-12                       [1, 16, 16, 768]          (7,091,328)
│    │    └─Block: 3-13                       [1, 16, 16, 768]          (7,104,128)
│    └─Sequential: 2-3                        [1, 256, 16, 16]          --
│    │    └─Conv2d: 3-14                      [1, 256, 16, 16]          (196,608)
│    │    └─LayerNorm2d: 3-15                 [1, 256, 16, 16]          (512)
│    │    └─Conv2d: 3-16                      [1, 256, 16, 16]          (589,824)
│    │    └─LayerNorm2d: 3-17                 [1, 256, 16, 16]          (512)
├─Linear: 1-2                                 [1, 19]                   4,883
├─Sequential: 1-11                            --                        (recursive)
│    └─ConvTranspose2d: 2-4                   [1, 512, 32, 32]          1,573,376
├─Sequential: 1-4                             [1, 512, 32, 32]          --
│    └─Deconv2DBlock: 2-5                     [1, 512, 32, 32]          --
│    │    └─Sequential: 3-18                  [1, 512, 32, 32]          3,934,208
├─Sequential: 1-11                            --                        (recursive)
│    └─Sequential: 2-6                        [1, 256, 64, 64]          --
│    │    └─Conv2DBlock: 3-19                 [1, 512, 32, 32]          4,720,128
│    │    └─Conv2DBlock: 3-20                 [1, 512, 32, 32]          2,360,832
│    │    └─Conv2DBlock: 3-21                 [1, 512, 32, 32]          2,360,832
│    │    └─ConvTranspose2d: 3-22             [1, 256, 64, 64]          524,544
├─Sequential: 1-6                             [1, 256, 64, 64]          --
│    └─Deconv2DBlock: 2-7                     [1, 512, 32, 32]          --
│    │    └─Sequential: 3-23                  [1, 512, 32, 32]          3,934,208
│    └─Deconv2DBlock: 2-8                     [1, 256, 64, 64]          --
│    │    └─Sequential: 3-24                  [1, 256, 64, 64]          1,115,136
├─Sequential: 1-11                            --                        (recursive)
│    └─Sequential: 2-9                        [1, 128, 128, 128]        --
│    │    └─Conv2DBlock: 3-25                 [1, 256, 64, 64]          1,180,416
│    │    └─Conv2DBlock: 3-26                 [1, 256, 64, 64]          590,592
│    │    └─ConvTranspose2d: 3-27             [1, 128, 128, 128]        131,200
├─Sequential: 1-8                             [1, 128, 128, 128]        --
│    └─Deconv2DBlock: 2-10                    [1, 512, 32, 32]          --
│    │    └─Sequential: 3-28                  [1, 512, 32, 32]          3,934,208
│    └─Deconv2DBlock: 2-11                    [1, 256, 64, 64]          --
│    │    └─Sequential: 3-29                  [1, 256, 64, 64]          1,115,136
│    └─Deconv2DBlock: 2-12                    [1, 128, 128, 128]        --
│    │    └─Sequential: 3-30                  [1, 128, 128, 128]        279,040
├─Sequential: 1-11                            --                        (recursive)
│    └─Sequential: 2-13                       [1, 64, 256, 256]         --
│    │    └─Conv2DBlock: 3-31                 [1, 128, 128, 128]        295,296
│    │    └─Conv2DBlock: 3-32                 [1, 128, 128, 128]        147,840
│    │    └─ConvTranspose2d: 3-33             [1, 64, 256, 256]         32,832
├─Sequential: 1-10                            [1, 64, 256, 256]         --
│    └─Conv2DBlock: 2-14                      [1, 32, 256, 256]         --
│    │    └─Sequential: 3-34                  [1, 32, 256, 256]         960
│    └─Conv2DBlock: 2-15                      [1, 64, 256, 256]         --
│    │    └─Sequential: 3-35                  [1, 64, 256, 256]         18,624
├─Sequential: 1-11                            --                        (recursive)
│    └─Sequential: 2-16                       [1, 2, 256, 256]          --
│    │    └─Conv2DBlock: 3-36                 [1, 64, 256, 256]         73,920
│    │    └─Conv2DBlock: 3-37                 [1, 64, 256, 256]         37,056
│    │    └─Conv2d: 3-38                      [1, 2, 256, 256]          130
├─Sequential: 1-20                            --                        (recursive)
│    └─ConvTranspose2d: 2-17                  [1, 512, 32, 32]          1,573,376
├─Sequential: 1-13                            [1, 512, 32, 32]          (recursive)
│    └─Deconv2DBlock: 2-18                    [1, 512, 32, 32]          (recursive)
│    │    └─Sequential: 3-39                  [1, 512, 32, 32]          (recursive)
├─Sequential: 1-20                            --                        (recursive)
│    └─Sequential: 2-19                       [1, 256, 64, 64]          --
│    │    └─Conv2DBlock: 3-40                 [1, 512, 32, 32]          4,720,128
│    │    └─Conv2DBlock: 3-41                 [1, 512, 32, 32]          2,360,832
│    │    └─Conv2DBlock: 3-42                 [1, 512, 32, 32]          2,360,832
│    │    └─ConvTranspose2d: 3-43             [1, 256, 64, 64]          524,544
├─Sequential: 1-15                            [1, 256, 64, 64]          (recursive)
│    └─Deconv2DBlock: 2-20                    [1, 512, 32, 32]          (recursive)
│    │    └─Sequential: 3-44                  [1, 512, 32, 32]          (recursive)
│    └─Deconv2DBlock: 2-21                    [1, 256, 64, 64]          (recursive)
│    │    └─Sequential: 3-45                  [1, 256, 64, 64]          (recursive)
├─Sequential: 1-20                            --                        (recursive)
│    └─Sequential: 2-22                       [1, 128, 128, 128]        --
│    │    └─Conv2DBlock: 3-46                 [1, 256, 64, 64]          1,180,416
│    │    └─Conv2DBlock: 3-47                 [1, 256, 64, 64]          590,592
│    │    └─ConvTranspose2d: 3-48             [1, 128, 128, 128]        131,200
├─Sequential: 1-17                            [1, 128, 128, 128]        (recursive)
│    └─Deconv2DBlock: 2-23                    [1, 512, 32, 32]          (recursive)
│    │    └─Sequential: 3-49                  [1, 512, 32, 32]          (recursive)
│    └─Deconv2DBlock: 2-24                    [1, 256, 64, 64]          (recursive)
│    │    └─Sequential: 3-50                  [1, 256, 64, 64]          (recursive)
│    └─Deconv2DBlock: 2-25                    [1, 128, 128, 128]        (recursive)
│    │    └─Sequential: 3-51                  [1, 128, 128, 128]        (recursive)
├─Sequential: 1-20                            --                        (recursive)
│    └─Sequential: 2-26                       [1, 64, 256, 256]         --
│    │    └─Conv2DBlock: 3-52                 [1, 128, 128, 128]        295,296
│    │    └─Conv2DBlock: 3-53                 [1, 128, 128, 128]        147,840
│    │    └─ConvTranspose2d: 3-54             [1, 64, 256, 256]         32,832
├─Sequential: 1-19                            [1, 64, 256, 256]         (recursive)
│    └─Conv2DBlock: 2-27                      [1, 32, 256, 256]         (recursive)
│    │    └─Sequential: 3-55                  [1, 32, 256, 256]         (recursive)
│    └─Conv2DBlock: 2-28                      [1, 64, 256, 256]         (recursive)
│    │    └─Sequential: 3-56                  [1, 64, 256, 256]         (recursive)
├─Sequential: 1-20                            --                        (recursive)
│    └─Sequential: 2-29                       [1, 2, 256, 256]          --
│    │    └─Conv2DBlock: 3-57                 [1, 64, 256, 256]         73,920
│    │    └─Conv2DBlock: 3-58                 [1, 64, 256, 256]         37,056
│    │    └─Conv2d: 3-59                      [1, 2, 256, 256]          130
├─Sequential: 1-29                            --                        (recursive)
│    └─ConvTranspose2d: 2-30                  [1, 512, 32, 32]          1,573,376
├─Sequential: 1-22                            [1, 512, 32, 32]          (recursive)
│    └─Deconv2DBlock: 2-31                    [1, 512, 32, 32]          (recursive)
│    │    └─Sequential: 3-60                  [1, 512, 32, 32]          (recursive)
├─Sequential: 1-29                            --                        (recursive)
│    └─Sequential: 2-32                       [1, 256, 64, 64]          --
│    │    └─Conv2DBlock: 3-61                 [1, 512, 32, 32]          4,720,128
│    │    └─Conv2DBlock: 3-62                 [1, 512, 32, 32]          2,360,832
│    │    └─Conv2DBlock: 3-63                 [1, 512, 32, 32]          2,360,832
│    │    └─ConvTranspose2d: 3-64             [1, 256, 64, 64]          524,544
├─Sequential: 1-24                            [1, 256, 64, 64]          (recursive)
│    └─Deconv2DBlock: 2-33                    [1, 512, 32, 32]          (recursive)
│    │    └─Sequential: 3-65                  [1, 512, 32, 32]          (recursive)
│    └─Deconv2DBlock: 2-34                    [1, 256, 64, 64]          (recursive)
│    │    └─Sequential: 3-66                  [1, 256, 64, 64]          (recursive)
├─Sequential: 1-29                            --                        (recursive)
│    └─Sequential: 2-35                       [1, 128, 128, 128]        --
│    │    └─Conv2DBlock: 3-67                 [1, 256, 64, 64]          1,180,416
│    │    └─Conv2DBlock: 3-68                 [1, 256, 64, 64]          590,592
│    │    └─ConvTranspose2d: 3-69             [1, 128, 128, 128]        131,200
├─Sequential: 1-26                            [1, 128, 128, 128]        (recursive)
│    └─Deconv2DBlock: 2-36                    [1, 512, 32, 32]          (recursive)
│    │    └─Sequential: 3-70                  [1, 512, 32, 32]          (recursive)
│    └─Deconv2DBlock: 2-37                    [1, 256, 64, 64]          (recursive)
│    │    └─Sequential: 3-71                  [1, 256, 64, 64]          (recursive)
│    └─Deconv2DBlock: 2-38                    [1, 128, 128, 128]        (recursive)
│    │    └─Sequential: 3-72                  [1, 128, 128, 128]        (recursive)
├─Sequential: 1-29                            --                        (recursive)
│    └─Sequential: 2-39                       [1, 64, 256, 256]         --
│    │    └─Conv2DBlock: 3-73                 [1, 128, 128, 128]        295,296
│    │    └─Conv2DBlock: 3-74                 [1, 128, 128, 128]        147,840
│    │    └─ConvTranspose2d: 3-75             [1, 64, 256, 256]         32,832
├─Sequential: 1-28                            [1, 64, 256, 256]         (recursive)
│    └─Conv2DBlock: 2-40                      [1, 32, 256, 256]         (recursive)
│    │    └─Sequential: 3-76                  [1, 32, 256, 256]         (recursive)
│    └─Conv2DBlock: 2-41                      [1, 64, 256, 256]         (recursive)
│    │    └─Sequential: 3-77                  [1, 64, 256, 256]         (recursive)
├─Sequential: 1-29                            --                        (recursive)
│    └─Sequential: 2-42                       [1, 6, 256, 256]          --
│    │    └─Conv2DBlock: 3-78                 [1, 64, 256, 256]         73,920
│    │    └─Conv2DBlock: 3-79                 [1, 64, 256, 256]         37,056
│    │    └─Conv2d: 3-80                      [1, 6, 256, 256]          390
===============================================================================================
Total params: 146,094,557
Trainable params: 56,423,645
Non-trainable params: 89,670,912
Total mult-adds (G): 200.15
===============================================================================================
Input size (MB): 0.79
Forward/backward pass size (MB): 2006.45
Params size (MB): 571.42
Estimated Total Size (MB): 2578.66
…
