…
          (1): BatchNorm2d(64, eps=1e-05, momentum=0.1, affine=True, track_running_stats=True)
          (2): ReLU(inplace=True)
          (3): Dropout(p=0, inplace=False)
        )
      )
      (2): Conv2d(64, 6, kernel_size=(1, 1), stride=(1, 1))
    )
  )
)
2023-09-20 06:04:30,817 [INFO] -
===============================================================================================
Layer (type:depth-idx)                        Output Shape              Param #
===============================================================================================
CellViT                                       [1, 6, 256, 256]          --
├─ViTCellViT: 1-1                             [1, 19]                   76,032
│    └─PatchEmbed: 2-1                        [1, 256, 384]             --
│    │    └─Conv2d: 3-1                       [1, 384, 16, 16]          295,296
│    └─Dropout: 2-2                           [1, 257, 384]             --
│    └─ModuleList: 2-3                        --                        --
│    │    └─Block: 3-2                        [1, 257, 384]             1,774,464
│    │    └─Block: 3-3                        [1, 257, 384]             1,774,464
│    │    └─Block: 3-4                        [1, 257, 384]             1,774,464
│    │    └─Block: 3-5                        [1, 257, 384]             1,774,464
│    │    └─Block: 3-6                        [1, 257, 384]             1,774,464
│    │    └─Block: 3-7                        [1, 257, 384]             1,774,464
│    │    └─Block: 3-8                        [1, 257, 384]             1,774,464
│    │    └─Block: 3-9                        [1, 257, 384]             1,774,464
│    │    └─Block: 3-10                       [1, 257, 384]             1,774,464
│    │    └─Block: 3-11                       [1, 257, 384]             1,774,464
│    │    └─Block: 3-12                       [1, 257, 384]             1,774,464
│    │    └─Block: 3-13                       [1, 257, 384]             1,774,464
│    └─LayerNorm: 2-4                         [1, 257, 384]             768
│    └─Linear: 2-5                            [1, 19]                   7,315
├─Sequential: 1-10                            --                        (recursive)
│    └─ConvTranspose2d: 2-6                   [1, 312, 32, 32]          479,544
├─Sequential: 1-3                             [1, 312, 32, 32]          --
│    └─Deconv2DBlock: 2-7                     [1, 312, 32, 32]          --
│    │    └─Sequential: 3-14                  [1, 312, 32, 32]          1,356,576
├─Sequential: 1-10                            --                        (recursive)
│    └─Sequential: 2-8                        [1, 256, 64, 64]          --
│    │    └─Conv2DBlock: 3-15                 [1, 312, 32, 32]          1,753,128
│    │    └─Conv2DBlock: 3-16                 [1, 312, 32, 32]          877,032
│    │    └─Conv2DBlock: 3-17                 [1, 312, 32, 32]          877,032
│    │    └─ConvTranspose2d: 3-18             [1, 256, 64, 64]          319,744
├─Sequential: 1-5                             [1, 256, 64, 64]          --
│    └─Deconv2DBlock: 2-9                     [1, 256, 32, 32]          --
│    │    └─Sequential: 3-19                  [1, 256, 32, 32]          984,064
│    └─Deconv2DBlock: 2-10                    [1, 256, 64, 64]          --
│    │    └─Sequential: 3-20                  [1, 256, 64, 64]          852,992
├─Sequential: 1-10                            --                        (recursive)
│    └─Sequential: 2-11                       [1, 128, 128, 128]        --
│    │    └─Conv2DBlock: 3-21                 [1, 256, 64, 64]          1,180,416
│    │    └─Conv2DBlock: 3-22                 [1, 256, 64, 64]          590,592
│    │    └─ConvTranspose2d: 3-23             [1, 128, 128, 128]        131,200
├─Sequential: 1-7                             [1, 128, 128, 128]        --
│    └─Deconv2DBlock: 2-12                    [1, 256, 32, 32]          --
│    │    └─Sequential: 3-24                  [1, 256, 32, 32]          984,064
│    └─Deconv2DBlock: 2-13                    [1, 128, 64, 64]          --
│    │    └─Sequential: 3-25                  [1, 128, 64, 64]          279,040
│    └─Deconv2DBlock: 2-14                    [1, 128, 128, 128]        --
│    │    └─Sequential: 3-26                  [1, 128, 128, 128]        213,504
├─Sequential: 1-10                            --                        (recursive)
│    └─Sequential: 2-15                       [1, 64, 256, 256]         --
│    │    └─Conv2DBlock: 3-27                 [1, 128, 128, 128]        295,296
│    │    └─Conv2DBlock: 3-28                 [1, 128, 128, 128]        147,840
│    │    └─ConvTranspose2d: 3-29             [1, 64, 256, 256]         32,832
├─Sequential: 1-9                             [1, 64, 256, 256]         --
│    └─Conv2DBlock: 2-16                      [1, 32, 256, 256]         --
│    │    └─Sequential: 3-30                  [1, 32, 256, 256]         960
│    └─Conv2DBlock: 2-17                      [1, 64, 256, 256]         --
│    │    └─Sequential: 3-31                  [1, 64, 256, 256]         18,624
├─Sequential: 1-10                            --                        (recursive)
│    └─Sequential: 2-18                       [1, 2, 256, 256]          --
│    │    └─Conv2DBlock: 3-32                 [1, 64, 256, 256]         73,920
│    │    └─Conv2DBlock: 3-33                 [1, 64, 256, 256]         37,056
│    │    └─Conv2d: 3-34                      [1, 2, 256, 256]          130
├─Sequential: 1-19                            --                        (recursive)
│    └─ConvTranspose2d: 2-19                  [1, 312, 32, 32]          479,544
├─Sequential: 1-12                            [1, 312, 32, 32]          (recursive)
│    └─Deconv2DBlock: 2-20                    [1, 312, 32, 32]          (recursive)
│    │    └─Sequential: 3-35                  [1, 312, 32, 32]          (recursive)
├─Sequential: 1-19                            --                        (recursive)
│    └─Sequential: 2-21                       [1, 256, 64, 64]          --
│    │    └─Conv2DBlock: 3-36                 [1, 312, 32, 32]          1,753,128
│    │    └─Conv2DBlock: 3-37                 [1, 312, 32, 32]          877,032
│    │    └─Conv2DBlock: 3-38                 [1, 312, 32, 32]          877,032
│    │    └─ConvTranspose2d: 3-39             [1, 256, 64, 64]          319,744
├─Sequential: 1-14                            [1, 256, 64, 64]          (recursive)
│    └─Deconv2DBlock: 2-22                    [1, 256, 32, 32]          (recursive)
│    │    └─Sequential: 3-40                  [1, 256, 32, 32]          (recursive)
│    └─Deconv2DBlock: 2-23                    [1, 256, 64, 64]          (recursive)
│    │    └─Sequential: 3-41                  [1, 256, 64, 64]          (recursive)
├─Sequential: 1-19                            --                        (recursive)
│    └─Sequential: 2-24                       [1, 128, 128, 128]        --
│    │    └─Conv2DBlock: 3-42                 [1, 256, 64, 64]          1,180,416
│    │    └─Conv2DBlock: 3-43                 [1, 256, 64, 64]          590,592
│    │    └─ConvTranspose2d: 3-44             [1, 128, 128, 128]        131,200
├─Sequential: 1-16                            [1, 128, 128, 128]        (recursive)
│    └─Deconv2DBlock: 2-25                    [1, 256, 32, 32]          (recursive)
│    │    └─Sequential: 3-45                  [1, 256, 32, 32]          (recursive)
│    └─Deconv2DBlock: 2-26                    [1, 128, 64, 64]          (recursive)
│    │    └─Sequential: 3-46                  [1, 128, 64, 64]          (recursive)
│    └─Deconv2DBlock: 2-27                    [1, 128, 128, 128]        (recursive)
│    │    └─Sequential: 3-47                  [1, 128, 128, 128]        (recursive)
├─Sequential: 1-19                            --                        (recursive)
│    └─Sequential: 2-28                       [1, 64, 256, 256]         --
│    │    └─Conv2DBlock: 3-48                 [1, 128, 128, 128]        295,296
│    │    └─Conv2DBlock: 3-49                 [1, 128, 128, 128]        147,840
│    │    └─ConvTranspose2d: 3-50             [1, 64, 256, 256]         32,832
├─Sequential: 1-18                            [1, 64, 256, 256]         (recursive)
│    └─Conv2DBlock: 2-29                      [1, 32, 256, 256]         (recursive)
│    │    └─Sequential: 3-51                  [1, 32, 256, 256]         (recursive)
│    └─Conv2DBlock: 2-30                      [1, 64, 256, 256]         (recursive)
│    │    └─Sequential: 3-52                  [1, 64, 256, 256]         (recursive)
├─Sequential: 1-19                            --                        (recursive)
│    └─Sequential: 2-31                       [1, 2, 256, 256]          --
│    │    └─Conv2DBlock: 3-53                 [1, 64, 256, 256]         73,920
│    │    └─Conv2DBlock: 3-54                 [1, 64, 256, 256]         37,056
│    │    └─Conv2d: 3-55                      [1, 2, 256, 256]          130
├─Sequential: 1-28                            --                        (recursive)
│    └─ConvTranspose2d: 2-32                  [1, 312, 32, 32]          479,544
├─Sequential: 1-21                            [1, 312, 32, 32]          (recursive)
│    └─Deconv2DBlock: 2-33                    [1, 312, 32, 32]          (recursive)
│    │    └─Sequential: 3-56                  [1, 312, 32, 32]          (recursive)
├─Sequential: 1-28                            --                        (recursive)
│    └─Sequential: 2-34                       [1, 256, 64, 64]          --
│    │    └─Conv2DBlock: 3-57                 [1, 312, 32, 32]          1,753,128
│    │    └─Conv2DBlock: 3-58                 [1, 312, 32, 32]          877,032
│    │    └─Conv2DBlock: 3-59                 [1, 312, 32, 32]          877,032
│    │    └─ConvTranspose2d: 3-60             [1, 256, 64, 64]          319,744
├─Sequential: 1-23                            [1, 256, 64, 64]          (recursive)
│    └─Deconv2DBlock: 2-35                    [1, 256, 32, 32]          (recursive)
│    │    └─Sequential: 3-61                  [1, 256, 32, 32]          (recursive)
│    └─Deconv2DBlock: 2-36                    [1, 256, 64, 64]          (recursive)
│    │    └─Sequential: 3-62                  [1, 256, 64, 64]          (recursive)
├─Sequential: 1-28                            --                        (recursive)
│    └─Sequential: 2-37                       [1, 128, 128, 128]        --
│    │    └─Conv2DBlock: 3-63                 [1, 256, 64, 64]          1,180,416
│    │    └─Conv2DBlock: 3-64                 [1, 256, 64, 64]          590,592
│    │    └─ConvTranspose2d: 3-65             [1, 128, 128, 128]        131,200
├─Sequential: 1-25                            [1, 128, 128, 128]        (recursive)
│    └─Deconv2DBlock: 2-38                    [1, 256, 32, 32]          (recursive)
│    │    └─Sequential: 3-66                  [1, 256, 32, 32]          (recursive)
│    └─Deconv2DBlock: 2-39                    [1, 128, 64, 64]          (recursive)
│    │    └─Sequential: 3-67                  [1, 128, 64, 64]          (recursive)
│    └─Deconv2DBlock: 2-40                    [1, 128, 128, 128]        (recursive)
│    │    └─Sequential: 3-68                  [1, 128, 128, 128]        (recursive)
├─Sequential: 1-28                            --                        (recursive)
│    └─Sequential: 2-41                       [1, 64, 256, 256]         --
│    │    └─Conv2DBlock: 3-69                 [1, 128, 128, 128]        295,296
│    │    └─Conv2DBlock: 3-70                 [1, 128, 128, 128]        147,840
│    │    └─ConvTranspose2d: 3-71             [1, 64, 256, 256]         32,832
├─Sequential: 1-27                            [1, 64, 256, 256]         (recursive)
│    └─Conv2DBlock: 2-42                      [1, 32, 256, 256]         (recursive)
│    │    └─Sequential: 3-72                  [1, 32, 256, 256]         (recursive)
│    └─Conv2DBlock: 2-43                      [1, 64, 256, 256]         (recursive)
│    │    └─Sequential: 3-73                  [1, 64, 256, 256]         (recursive)
├─Sequential: 1-28                            --                        (recursive)
│    └─Sequential: 2-44                       [1, 6, 256, 256]          --
│    │    └─Conv2DBlock: 3-74                 [1, 64, 256, 256]         73,920
│    │    └─Conv2DBlock: 3-75                 [1, 64, 256, 256]         37,056
│    │    └─Conv2d: 3-76                      [1, 6, 256, 256]          390
===============================================================================================
Total params: 46,750,349
Trainable params: 46,750,349
Non-trainable params: 0
Total mult-adds (G): 132.89
===============================================================================================
Input size (MB): 0.79
Forward/backward pass size (MB): 1672.49
Params size (MB): 186.70
Estimated Total Size (MB): 1859.98
…
